System/data/model.tflite (tflite, 23296 bytes, 5 tensors)

arith.constant f4 [4, 16]
00000000: b739 57bf 0a18 cfbd 0887 993e e35f b53e
00000010: e133 d0be e306 22bf 888a 3ebd c98d cfbb
00000020: 3d39 a4be 8680 c83e 06d0 00bf 4b8e 483e
00000030: 04ec 1dbf 3ddf 583d 4cff 17bf 5458 093f
00000040: 2e55 52bd 7b34 f6bd 6a63 3f3e d720 3abf
00000050: 1a49 77bd be98 79bd 4e89 99be 8260 c4bf
00000060: b8a5 d5be e79b a43e 30c9 86bf a58f 9abf
00000070: def2 103f 5092 e93e 415b 23bf 26ed 4dbe
00000080: 78d5 c13d 352d eebd 0785 74bf 43f1 20bf
00000090: bdb7 df3e ce59 ad3e 1793 90bf 46f1 ccbe
000000a0: db62 183e 03a4 74be b2bb ffbd 204b 05be
000000b0: 7734 39bf 0cb1 fa3e c6ba d43e 7922 b1be
000000c0: 6996 a23c 6293 95bf 5655 693d 7a56 8f3e
000000d0: ef98 963e e696 003e 2028 2fbe 8862 b9bb
000000e0: dcc8 663d 848a abbe 6a30 1a3f 2420 5f3e
000000f0: 1d5d df3e 32ef 98bf e8d0 c53e 9ad3 04bf
-0.8407244 -0.10112007 0.29985833 0.35424718 -0.4066458 -0.6329176 -0.046518832 -0.006334041
-0.3207492 0.39160556 -0.5031742 0.1958553 -0.61688256 0.05294727 -0.5937393 0.53650403
-0.051350765 -0.120217286 0.18690267 -0.7270636 -0.06037245 -0.060936682 -0.29987568 -1.5341952
-0.41727996 0.32150194 -1.0530148 -1.2075087 0.56620586 0.4561944 -0.6381112 -0.20109996
0.09464544 -0.11629716 -0.95515484 -0.62868136 0.4369487 0.33857578 -1.1294888 -0.40027827
0.1488146 -0.2389069 -0.12486972 -0.13016939 -0.7234568 0.489632 0.41548747 -0.34596613
0.019847112 -1.1685603 0.05696615 0.27995664 0.29413554 0.12557563 -0.1710515 -0.005657498
0.0563439 -0.33504117 0.60230124 0.21789604 0.43625727 -1.1947997 0.38635945 -0.5188538

arith.constant1 f4 [64, 7]
00000000: ef8c 203e 5c24 da3d 2fb6 f43c 5284 23be
00000010: ee07 00be dd52 2dbe 2599 4ebd b377 473e
00000020: 36e1 b23d 9608 0abe 31e3 87be 1e39 53bd
00000030: 6091 69be 93b1 5a3e 61d1 d1be 8457 74be
00000040: 65e8 60bc ae03 83be 0d22 583e ff69 96ba
00000050: df3d 993e 91ce 0fbe b152 0dbe 239d 443e
00000060: 24de 763d 1b9a 7d3e 4c67 83bd 8df8 053e
00000070: c68b 953d 95cd a23e 2897 d03e b7cf 343e
00000080: 21a5 efbc 167f 9abd 5942 e9bc de9b 98bc
00000090: 1a04 c63d d67a 1abe 3bc6 f4bd 098d ec3d
000000a0: 6e97 33be a7c5 83bd 3a60 7e3d 1982 1c3e
000000b0: a568 a2be 620d 9c3d bb82 40bd 4c7a 30be
000000c0: 65e2 dfbe face 84be a32d 2bbd 68f3 e03d
000000d0: 8c83 46be 2a12 fe3d a4a6 b9bd 47a9 2b3e
000000e0: 9de5 afbe c14d 39bd c3ed e63c 919c 28be
000000f0: c861 97bd ac6a 983e df9c b13e b5e4 7fbe
00000100: 6bf2 dbbd ade2 ebbd 26b9 31bd 6fa5 af3d
00000110: e53d 173d 50e4 21be a4ab 8fbe 1523 af3c
00000120: bcac a33d 8182 5ebe abfc 403d e246 193e
00000130: 63a8 c1bd 08b4 023e 69b2 85be ad37 363e
00000140: 930a a7bd 8e8a f7bc b296 a83b 800a 0cbe
00000150: 19b9 86be 8ad4 c7bc fe27 ddbc 475a b2be
00000160: ce05 8f3e e385 3d3e 6fdb 94bc 3820 d63e
00000170: c15d ca3d 4488 f33d 6cf4 18bc df06 423e
00000180: b04a 103e cff3 e7bc 4936 f43d f29a a2bd
00000190: c055 a03c 699d 1d3e 648a 6f3d bb7b 4a3d
000001a0: 734b 3abe f142 1cbe 76b3 76be 1f2a 353e
000001b0: ea00 e03d 4128 efbc 43cb dabd 4f91 19be
000001c0: a09f 923d 9de6 193d b94d eb3c 3733 83bd
000001d0: 7fac 0f3d fd9b dcbd 66d8 a93d 3b7a b63d
000001e0: 0ffc 1ebc a787 dbbd fc51 053e 51fd 9dbd
000001f0: 0076 b1bd edc0 cd3d 8599 c9bd 7cf9 80bd
00000200: 0361 15be 19ad f43c 1831 d73c 3331 683d
00000210: 4a50 0fbe 5893 e2bc eac5 cd3d 31da be3d
00000220: bfe0 523c 0b9e 553d 4674 763d 4e73 a53d
00000230: 7a44 8d3d e7bb ab3d 0660 8f3e efdc 623d
00000240: 9feb 41bd e05a 023e b123 0dbd 9921 353d
00000250: 703e 9e3d 179b 8ebd f772 6ebd 8f06 643d
00000260: 349d 3fbd d26b cabd 2768 27bd 9232 b93c
00000270: 6edd ccbd aeb8 603d ceda 0ebd af71 4e3e
00000280: e640 0bbe 7452 05be 0eda 263d 56b4 1c3e
00000290: 3db6 bfbd 3487 243d 4fc2 3a3d 1f19 bb3d
000002a0: 272e a7be c84f c0bc 7f6e 0c3e 27a4 69be
000002b0: 4850 e53d c246 c43c 0487 393e ff82 05be
000002c0: 3b76 a7bd f7ff c53d 490a d2bc 0950 2bbc
000002d0: 07b4 353e 69fd c1bd 7c8d e03a d880 333c
000002e0: e291 dcbd 458a c7bc 769e 703d 4007 5ebd
000002f0: eef8 8cbd aaf4 c73b 694b 75bc 9f8a 0d3e
00000300: 70a0 a5bd 0098 c53d 7809 b83d 427c 2a3d
00000310: b23f 84bb 64cb c63d 2867 88be d7ab 983c
00000320: 5e5e bdbc 742a 27be a228 243d afb2 783d
00000330: ec29 5b3c 77e2 a2bd 254e 953d cd2d 053c
00000340: 0425 1fbd 3814 073d 9bbb 4dbd bc15 893d
00000350: 72db 3bbe 7893 813d 280a 1abe 385a d63d
00000360: 9342 34bd 0410 7fbd 81ed aabc 0aab 0bbc
00000370: 731a a43c 476b 17bd bea1 97bd 8f2b 26bd
00000380: 9249 f83e af9f 073f 3b76 363d dbc1 c2be
00000390: 120c 3dbc 693f 4abe 38c2 dd3d a70f 6f3e
000003a0: 6d0d cd3d 597c fdbc 9077 96be 6419 d1bc
000003b0: 6310 a6be d104 ba3e 0ddf 4c3e 798a a5bd
000003c0: 8ce5 1bbe f97f bfbd 3ffe 06be 5e3a 2ebe
000003d0: 9a06 e1be ee61 8ebe f15a 33be 1490 e5bc
000003e0: ecc8 93be b591 943e 4e39 f6bd 87e0 6fbe
000003f0: 9d23 733e 2072 d43e c14f 973e a217 c33d
0.15678762 0.10651466 0.029872028 -0.15968445 -0.12503025 -0.16926141 -0.05043902 0.19479255
0.08734362 -0.13479838 -0.2654052 -0.051568143 -0.22809362 0.21356802 -0.40980056 -0.2386151
-0.013727282 -0.25588745 0.2110674 -0.0011475681 0.29930016 -0.14043643 -0.13801076 0.19200568
0.060270444 0.24765818 -0.06416187 0.13083096 0.0730205 0.31797472 0.40740323 0.17657362
-0.029253544 -0.07543771 -0.02847402 -0.01862901 0.09668751 -0.1508592 -0.11951872 0.11550338
-0.17538235 -0.064341836 0.062103488 0.15284003 -0.31720462 0.0761974 -0.046999674 -0.17234153
-0.43727413 -0.2593916 -0.04179157 0.10983926 -0.19386119 0.12405808 -0.09064987 0.16763793
-0.3435487 -0.045240168 0.028189545 -0.16465975 -0.07391697 0.29768884 0.34689996 -0.24989589
-0.10739597 -0.11517844 -0.043389462 0.08576476 0.03692426 -0.1580975 -0.2806064 0.021379033
0.07991931 -0.21729471 0.047115963 0.14968446 -0.09455945 0.12763989 -0.2611268 0.17794676
-0.08156314 -0.030217435 0.0051449174 -0.1367588 -0.26313093 -0.024393339 -0.026996609 -0.348345
0.27934116 0.18508105 -0.01817104 0.41821456 0.098811634 0.11891225 -0.0093356185 0.18947934
0.14090991 -0.0283145 0.119244166 -0.0793971 0.019572139 0.15392078 0.05848159 0.049434405
-0.18192844 -0.15259911 -0.24091896 0.17691849 0.10937674 -0.029194 -0.106833 -0.14996837
0.07159352 0.037573446 0.028723584 -0.06406253 0.035076614 -0.1077194 0.08293228 0.08910032
-0.00970365 -0.10719233 0.13019556 -0.07714332 -0.08665085 0.10046563 -0.09843735 -0.06297585
-0.14587788 0.029867696 0.026268527 0.056687545 -0.13995472 -0.02765815 0.10047515 0.093189605
0.012870966 0.052152675 0.06016948 0.08078633 0.068978265 0.08385449 0.28002948 0.05538648
-0.047343846 0.12729979 -0.034457866 0.044221494 0.07726753 -0.06963175 -0.058215108 0.055670317
-0.04678078 -0.09883846 -0.04087081 0.022607122 -0.10003172 0.054863624 -0.034876637 0.20160554
-0.13598976 -0.13019735 0.040735297 0.15303168 -0.09360931 0.040168002 0.045595463 0.09135651
-0.326524 -0.023475543 0.13714026 -0.22816525 0.11196953 0.023959521 0.1811791 -0.13038252
-0.081768475 0.09667962 -0.02563967 -0.010456094 0.17744456 -0.09472162 0.0017132009 0.010956012
-0.107700124 -0.024357924 0.05874487 -0.054206133 -0.06883417 0.0061021643 -0.014971592 0.13822411
-0.08087242 0.09648132 0.08986181 0.041622408 -0.0040359134 0.097067624 -0.26641202 0.018636627
-0.023116287 -0.16324788 0.040077813 0.06071728 0.013376694 -0.07953351 0.072902955 0.008128596
-0.03885366 0.032978266 -0.050227743 0.06693599 -0.1834543 0.063269556 -0.15042937 0.104664266
-0.044008803 -0.062271133 -0.020865204 -0.008524666 0.020032143 -0.036967542 -0.07403897 -0.040568884
0.4849363 0.5297803 0.044546347 -0.38038525 -0.011538522 -0.19750752 0.1082806 0.23345815
0.100123264 -0.030943083 -0.29388094 -0.025524803 -0.32434377 0.363318 0.20006962 -0.08083052
-0.15224284 -0.09350581 -0.13182925 -0.17014453 -0.4395035 -0.2780909 -0.1751516 -0.028022803
-0.2886423 0.29017416 -0.12022649 -0.23425494 0.23744054 0.4149332 0.29553035 0.09525992

arith.constant2 f4 [64, 16]
00000000: c914 d33e 53cd 213f 4a7c 9c3e f4fe e13e
00000010: 4142 cd3d 8fc1 273f b7c8 983d d384 463e
00000020: 7c44 9a3e 2ff4 6b3e 6e4d f9be 4975 e13e
00000030: bce5 aa3e 73c4 c93b 8636 753e 36f5 073c
00000040: 0511 4c3e 830f 653e 0655 8c3e 05e5 1f3e
00000050: c938 5b3e f13f 93bd 4d6e 743e 4afd b1be
00000060: fafa 8e3e cbdd 88bd ebf9 b2be ac99 783e
00000070: 77c6 8dbe ea3d ab3e c249 d0bd a2a7 223e
00000080: 04c5 07bf 4683 203d 60ec 3a3e 36bc 623e
00000090: e896 1bbe 9ebd 50bd d196 d93e 5913 8a3d
000000a0: 48fe d3bd acc8 54bd 4ef1 6a3f 2a42 bfbd
000000b0: 1312 fe3d 1a7a 48be 8b5f eb3d 3ec4 d13e
000000c0: a083 b83e 9f0b 333e 058e 313c 73f5 043d
000000d0: 9878 c83e e0bc 703d 42b3 d03e 9556 9e3e
000000e0: 146e 2fbe ab40 c13e 0528 3a3e f29c be3e
000000f0: bd33 82be c6d1 a63d c31d 81bb f247 103e
00000100: 5573 233d cb55 10be 8ed4 29bf 2cea 9c3d
00000110: 8bb5 a43e 818f 063f 587c 15bf 1477 b23d
00000120: 1878 e23e 1aee e4be 9e81 fa3b 883a 7d3e
00000130: 5439 c3be 3f84 293d 2d4e febc 35cf 1a3f
00000140: 3b68 9d3e ce52 d53e d058 ae3e 0bd9 183e
00000150: b537 583c 4174 a53d 9576 b63e b602 8c3e
00000160: fb6e 8f3e 0bac 9a3c dd56 b23b 0ec2 5ebe
00000170: fe1f cd3c 3438 d53e 9c26 45bd 4be5 01be
00000180: 3107 8e3d 3cf9 ffbe d524 713e 6295 7c3e
00000190: e01a 8c3e dc34 7c3f b541 ca3e ad44 df3e
000001a0: 35b5 b33e 9fea 9f3e 1ae9 ca3c ef39 893e
000001b0: d0b7 1e3e 29bc 113f 7e65 db3e a59e ce3d
000001c0: 3957 df3d 5438 0b3f 07a3 033f 4dfb 123d
000001d0: 4b8d a9be 5c59 8dbe 6f91 3a3e d3a5 993b
000001e0: caf8 9abe 4e89 fcbb e6f4 b13e 6a4f 333e
000001f0: e942 113e b4b2 483e b0ed 24be ddd7 3fbe
00000200: d8d1 643e e464 3a3c b420 86bf c583 323c
00000210: ad2a df3e 9bc8 dabd 6e46 633e a69d 533e
00000220: 49d3 123f 2b9c 3e3d ef37 0a3f 5e6e aabe
00000230: c41c df3d 338b f33d f172 273e acaf 7d3e
00000240: ff91 cbbe 91c8 d53b ce94 543e 472e cb3d
00000250: cb25 6f3e 644e 54be 2040 673e 4d79 bc39
00000260: f65a c23e 9c6f 493d 084a 5b3f 19ce 2e3e
00000270: a7f7 753e c3f4 c2bd d9c6 a63e 7544 b53e
00000280: 67e2 a9be 27da f43d cd7d d93e 7c3f 003f
00000290: 3462 69be c92b 10be 4720 02be b601 3e3f
000002a0: a56e 053e 290c bc3e 0a15 b93e 8a09 0e3f
000002b0: 1da1 11be cb68 d5bc f5d8 cdbd 7133 8f3e
000002c0: d9d7 72be c776 643f 7978 f83e e3ba a0bd
000002d0: 6a71 00bf 78cf 0f3e f01c c23e 39cb 20bd
000002e0: 2e60 b3be 51fe fd3e 7c5f 69bd 6197 e93d
000002f0: 44e9 5f3e 3737 b6be 45a9 d1bd ad0a d23d
00000300: 42e5 a6bd 838f 843e f09b 0abf 062c c2bd
00000310: 651a 10be 342b 8cbe 1cf3 71be 0f48 5f3d
00000320: 87da 213f 4a78 d7be 085f 183f 4d77 08be
00000330: 9b08 c23e 94f8 40be 29c5 1fbe 617f e4bd
00000340: 5493 ef3e 248f 43be ac7e 87be 2205 ccbd
00000350: b873 7f3e 37e4 403e ddb3 1fbf 5384 8bbd
00000360: f782 cb3e 970f eabc 5e31 c2be 7e9a 8d3e
00000370: 07e9 103f fae4 f1bd 5c7b ea3e 9197 22bd
00000380: 0069 093f 58e1 b3be 9328 b63e 9eb9 47be
00000390: 9ad7 573f 3c59 a33e 14b6 a7bc 76ab 33bd
000003a0: 3ea9 bf3e b5c8 23bd 895a 433f 8ade 63bd
000003b0: 56f7 e43d 6680 d5be e332 303d d35d 1dbd
000003c0: 9bfe e7bb bf36 38be 5850 5c3e 7379 86bd
000003d0: a2d8 623e bf63 023d f481 183e 30f0 36be
000003e0: d813 063e 8f8c 2f3e b124 b63e f203 0b3f
000003f0: 9ead 533e f79a b23c dfbc 103e 996f 003e
0.41226795 0.63203925 0.30563575 0.44139826 0.100224026 0.6552972 0.07460158 0.19386606
0.30130374 0.23042367 -0.48691887 0.44034794 0.33378398 0.006157452 0.2394658 0.008298209
0.19928367 0.22369199 0.27408618 0.15614708 0.2140838 -0.0718993 0.23870201 -0.34763557
0.27925855 -0.06682929 -0.34956297 0.24277371 -0.2769048 0.33445674 -0.10170318 0.1588426
-0.53034997 0.039187692 0.18254232 0.2214211 -0.15194285 -0.050962083 0.42497876 0.067419715
-0.10351235 -0.051949188 0.9177445 -0.09338792 0.12405791 -0.19577828 0.11492833 0.40970033
0.36037922 0.17484902 0.010837083 0.03246064 0.39154506 0.058773875 0.40761763 0.30925432
-0.17131835 0.3774465 0.18179329 0.37229115 -0.25430098 0.0814548 -0.0039403155 0.14089945
0.03990491 -0.14095227 -0.6633996 0.07661852 0.32169756 0.5256272 -0.5839286 0.087141186
0.4423225 -0.44712907 0.007644846 0.24729359 -0.38129675 0.041385885 -0.031043136 0.6047242
0.30743584 0.41664737 0.34052134 0.14926545 0.013196875 0.08078814 0.35637346 0.27345818
0.2801436 0.018880865 0.005442484 -0.21753713 0.02503967 0.41644442 -0.048132524 -0.12685125
0.069349654 -0.49994838 0.23549207 0.2466636 0.27364254 0.98518157 0.39503255 0.43607083
0.35099187 0.3123369 0.024769355 0.26802012 0.15499806 0.56927735 0.4285087 0.10088853
0.10905308 0.54382825 0.51420635 0.03588419 -0.3311561 -0.27607238 0.18219541 0.0046889572
-0.30267936 -0.0077067977 0.34757155 0.17510763 0.1418568 0.1959942 -0.16106296 -0.18734689
0.22345674 0.011376593 -1.047873 0.010895674 0.43587247 -0.10682794 0.22194836 0.20665607
0.57353646 0.046535652 0.539916 -0.33287328 0.108941585 0.118917845 0.1635244 0.24774045
-0.39759824 0.0065241535 0.2075989 0.09920936 0.2335426 -0.20733029 0.22583055 0.0003594853
0.37960023 0.049178705 0.8565984 0.17070808 0.24020253 -0.09519341 0.32573584 0.3540379
-0.33180544 0.11955672 0.4247879 0.5009687 -0.22791368 -0.14079203 -0.12707625 0.7422136
0.13030489 0.36728027 0.36148864 0.55483305 -0.14221616 -0.026050946 -0.10051147 0.27968934
-0.23715152 0.8924374 0.48529413 -0.07848146 -0.50173056 0.14043987 0.37912703 -0.03925631
-0.35034317 0.4960809 -0.056975827 0.11405826 0.21866328 -0.35589 -0.10237364 0.102559425
-0.08149196 0.2589074 -0.5414419 -0.09481053 -0.14072569 -0.2737671 -0.23627895 0.05451208
0.6322407 -0.4208396 0.59520006 -0.1332676 0.3789719 -0.18844825 -0.15602554 -0.11157108
0.4679209 -0.19097573 -0.2646383 -0.099619165 0.24946487 0.18837057 -0.62383825 -0.06812348
0.39748356 -0.028571887 -0.3792829 0.2765693 0.5660557 -0.11811252 0.4579724 -0.039695326
0.5367584 -0.3513286 0.3557783 -0.19504401 0.84313357 0.31904018 -0.020472564 -0.04386469
0.3743381 -0.03998633 0.7631002 -0.05563215 0.11179988 -0.41699523 0.04301728 -0.038419556
-0.007079912 -0.17989634 0.21515024 -0.06566133 0.22152951 0.031833407 0.14893323 -0.17865062
0.13093507 0.17143463 0.35574868 0.54302895 0.20671698 0.021802409 0.14134549 0.12542571

arith.constant3 f4 [64]
00000000: f912 953e 01e9 d23e 77ae a83d eea5 573d
00000010: ed63 0f3e e3df 0d3e 6321 323e 0657 313e
00000020: a1a3 713e 5682 3a3e 79a2 b93e cf72 7e3e
00000030: 8c80 303e 5985 243e 9f64 873d 132b 823e
00000040: 4385 903f 8dc0 993f a098 883f 6129 793f
00000050: 2c9f 803f 5840 603f c27d 733f 368c 723f
00000060: 9c7d 753f 3fa7 933f 3ee7 843f 0ff4 a03f
00000070: 70ba 8a3f a9e7 933f 1ef7 633f b78b 963f
00000080: 37ac a73d 3f39 b93e 9656 263e 41f2 4b3d
00000090: a6d1 f13d 963b dabd 8d86 a7bd 9824 063e
000000a0: 1f2a 3b3e 6105 203e f5db 1b3e b7cf 2b3d
000000b0: 1bd8 9e3d 55e9 563e f6d2 8abc 1682 1e3e
000000c0: 2f63 813e 079a da3e efdf 9b3d e3da 463d
000000d0: 0776 1f3e e6c8 143d f239 e93d b217 073e
000000e0: 37b0 60bd a40a 0b3e 086b a63e e7bd bc3e
000000f0: f439 813e fa22 603e dac1 3d3d f5e7 9a3e
0.29116037 0.41193393 0.082364015 0.052648477 0.14002962 0.13854937 0.17395549 0.17318353
0.23597576 0.18213782 0.3625677 0.24848484 0.17236537 0.16066493 0.06610989 0.25423488
1.1290668 1.2011887 1.0671577 0.97328764 1.0048575 0.8759818 0.95113766 0.94745195
0.9589479 1.1535414 1.038307 1.2574481 1.0838146 1.1555072 0.89048946 1.1761388
0.08187144 0.36176488 0.16243967 0.04979158 0.118075654 -0.10655896 -0.081799604 0.13099897
0.18277787 0.15627052 0.15220626 0.04194614 0.077560626 0.20987447 -0.016946297 0.15479311
0.25270984 0.4269564 0.07611071 0.04854859 0.15572368 0.036324404 0.11388005 0.13192633
-0.05485555 0.13578278 0.32503533 0.36863634 0.25239527 0.21888342 0.04632745 0.30255094

arith.constant4 f4 [4]
00000000: 15ab 22be 1c91 bb3e f512 823c 75fb 6cbe
-0.15885575 0.36634147 0.01587818 -0.23142798
